…
       "text/plain": [
        "<IPython.core.display.HTML object>"
@@ -773,7 +773,7 @@
   },
   {
    "cell_type": "code",
-   "execution_count": 32,
+   "execution_count": 33,
    "id": "06fe3d37-4338-4e37-bc8b-fb8ce799aed2",
    "metadata": {},
    "outputs": [],
@@ -794,7 +794,7 @@
   },
   {
    "cell_type": "code",
-   "execution_count": 33,
+   "execution_count": 34,
    "id": "fbc9eff3-0e4c-4afb-a9fa-a1602f80bb92",
    "metadata": {},
    "outputs": [
@@ -804,17 +804,17 @@
        "Model(\n",
        "  (activation): ReLU()\n",
        "  (output_activation): Sigmoid()\n",
-       "  (linear1): Linear(in_features=20127, out_features=1024, bias=True)\n",
-       "  (linear2): Linear(in_features=1024, out_features=2048, bias=True)\n",
-       "  (linearbn): BatchNorm1d(2048, eps=1e-05, momentum=0.1, affine=True, track_running_stats=True)\n",
-       "  (linear3): Linear(in_features=2048, out_features=2048, bias=True)\n",
-       "  (linear4): Linear(in_features=2048, out_features=4096, bias=True)\n",
-       "  (linear5): Linear(in_features=4096, out_features=2048, bias=True)\n",
-       "  (output): Linear(in_features=2048, out_features=1, bias=True)\n",
+       "  (linear1): Linear(in_features=20127, out_features=512, bias=True)\n",
+       "  (linear2): Linear(in_features=512, out_features=1024, bias=True)\n",
+       "  (linearbn): BatchNorm1d(1024, eps=1e-05, momentum=0.1, affine=True, track_running_stats=True)\n",
+       "  (linear3): Linear(in_features=1024, out_features=1024, bias=True)\n",
+       "  (linear4): Linear(in_features=1024, out_features=1536, bias=True)\n",
+       "  (linear5): Linear(in_features=1536, out_features=1024, bias=True)\n",
+       "  (output): Linear(in_features=1024, out_features=1, bias=True)\n",
        ")"
       ]
      },
-     "execution_count": 33,
+     "execution_count": 34,
      "metadata": {},
      "output_type": "execute_result"
     }
@@ -825,7 +825,7 @@
   },
   {
    "cell_type": "code",
-   "execution_count": 34,
+   "execution_count": 35,
    "id": "0a168e7e-ff7b-4965-9fbf-37d5f6dfa79f",
    "metadata": {},
    "outputs": [],
…
